{"modelTopology": {"node": [{"name": "Variable_47", "op": "Const", "attr": {"value": {"tensor": {"dtype": "DT_FLOAT", "tensorShape": {"dim": [{"size": "3"}]}}}, "dtype": {"type": "DT_FLOAT"}}}, {"name": "Variable_44", "op": "Const", "attr": {"value": {"tensor": {"dtype": "DT_FLOAT", "tensorShape": {"dim": [{"size": "32"}]}}}, "dtype": {"type": "DT_FLOAT"}}}, {"name": "stack_1", "op": "Const", "attr": {"value": {"tensor": {"dtype": "DT_INT32", "tensorShape": {"dim": [{"size": "4"}]}}}, "dtype": {"type": "DT_INT32"}}}, {"name": "Variable_42", "op": "Const", "attr": {"value": {"tensor": {"dtype": "DT_FLOAT", "tensorShape": {"dim": [{"size": "3"}, {"size": "3"}, {"size": "32"}, {"size": "64"}]}}}, "dtype": {"type": "DT_FLOAT"}}}, {"name": "Variable_41", "op": "Const", "attr": {"dtype": {"type": "DT_FLOAT"}, "value": {"tensor": {"dtype": "DT_FLOAT", "tensorShape": {"dim": [{"size": "64"}]}}}}}, {"name": "stack", "op": "Const", "attr": {"value": {"tensor": {"dtype": "DT_INT32", "tensorShape": {"dim": [{"size": "4"}]}}}, "dtype": {"type": "DT_INT32"}}}, {"name": "Variable_39", "op": "Const", "attr": {"value": {"tensor": {"dtype": "DT_FLOAT", "tensorShape": {"dim": [{"size": "3"}, {"size": "3"}, {"size": "64"}, {"size": "128"}]}}}, "dtype": {"type": "DT_FLOAT"}}}, {"name": "Variable_37", "op": "Const", "attr": {"dtype": {"type": "DT_FLOAT"}, "value": {"tensor": {"dtype": "DT_FLOAT", "tensorShape": {"dim": [{"size": "128"}]}}}}}, {"name": "Variable_38", "op": "Const", "attr": {"value": {"tensor": {"dtype": "DT_FLOAT", "tensorShape": {"dim": [{"size": "128"}]}}}, "dtype": {"type": "DT_FLOAT"}}}, {"name": "Variable_35", "op": "Const", "attr": {"value": {"tensor": {"dtype": "DT_FLOAT", "tensorShape": {"dim": [{"size": "128"}]}}}, "dtype": {"type": "DT_FLOAT"}}}, {"name": "Variable_31", "op": "Const", "attr": {"value": {"tensor": {"dtype": "DT_FLOAT", "tensorShape": {"dim": [{"size": "128"}]}}}, "dtype": {"type": "DT_FLOAT"}}}, {"name": "Variable_32", "op": "Const", "attr": {"value": {"tensor": {"dtype": "DT_FLOAT", "tensorShape": {"dim": [{"size": "128"}]}}}, "dtype": {"type": "DT_FLOAT"}}}, {"name": "Variable_29", "op": "Const", "attr": {"value": {"tensor": {"dtype": "DT_FLOAT", "tensorShape": {"dim": [{"size": "128"}]}}}, "dtype": {"type": "DT_FLOAT"}}}, {"name": "Variable_25", "op": "Const", "attr": {"dtype": {"type": "DT_FLOAT"}, "value": {"tensor": {"dtype": "DT_FLOAT", "tensorShape": {"dim": [{"size": "128"}]}}}}}, {"name": "Variable_26", "op": "Const", "attr": {"value": {"tensor": {"dtype": "DT_FLOAT", "tensorShape": {"dim": [{"size": "128"}]}}}, "dtype": {"type": "DT_FLOAT"}}}, {"name": "Variable_23", "op": "Const", "attr": {"value": {"tensor": {"dtype": "DT_FLOAT", "tensorShape": {"dim": [{"size": "128"}]}}}, "dtype": {"type": "DT_FLOAT"}}}, {"name": "Variable_19", "op": "Const", "attr": {"value": {"tensor": {"dtype": "DT_FLOAT", "tensorShape": {"dim": [{"size": "128"}]}}}, "dtype": {"type": "DT_FLOAT"}}}, {"name": "Variable_20", "op": "Const", "attr": {"value": {"tensor": {"dtype": "DT_FLOAT", "tensorShape": {"dim": [{"size": "128"}]}}}, "dtype": {"type": "DT_FLOAT"}}}, {"name": "Variable_17", "op": "Const", "attr": {"value": {"tensor": {"dtype": "DT_FLOAT", "tensorShape": {"dim": [{"size": "128"}]}}}, "dtype": {"type": "DT_FLOAT"}}}, {"name": "Variable_13", "op": "Const", "attr": {"value": {"tensor": {"dtype": "DT_FLOAT", "tensorShape": {"dim": [{"size": "128"}]}}}, "dtype": {"type": "DT_FLOAT"}}}, {"name": "Variable_14", "op": "Const", "attr": {"value": {"tensor": {"dtype": "DT_FLOAT", "tensorShape": {"dim": [{"size": "128"}]}}}, "dtype": {"type": "DT_FLOAT"}}}, {"name": "Variable_11", "op": "Const", "attr": {"value": {"tensor": {"dtype": "DT_FLOAT", "tensorShape": {"dim": [{"size": "128"}]}}}, "dtype": {"type": "DT_FLOAT"}}}, {"name": "Variable_8", "op": "Const", "attr": {"value": {"tensor": {"dtype": "DT_FLOAT", "tensorShape": {"dim": [{"size": "128"}]}}}, "dtype": {"type": "DT_FLOAT"}}}, {"name": "Variable_5", "op": "Const", "attr": {"value": {"tensor": {"dtype": "DT_FLOAT", "tensorShape": {"dim": [{"size": "64"}]}}}, "dtype": {"type": "DT_FLOAT"}}}, {"name": "Variable_2", "op": "Const", "attr": {"value": {"tensor": {"dtype": "DT_FLOAT", "tensorShape": {"dim": [{"size": "32"}]}}}, "dtype": {"type": "DT_FLOAT"}}}, {"name": "add/y", "op": "Const", "attr": {"value": {"tensor": {"dtype": "DT_FLOAT", "tensorShape": {}}}, "dtype": {"type": "DT_FLOAT"}}}, {"name": "ExpandDims/dim", "op": "Const", "attr": {"value": {"tensor": {"dtype": "DT_INT32", "tensorShape": {}}}, "dtype": {"type": "DT_INT32"}}}, {"name": "Variable", "op": "Const", "attr": {"dtype": {"type": "DT_FLOAT"}, "value": {"tensor": {"dtype": "DT_FLOAT", "tensorShape": {"dim": [{"size": "9"}, {"size": "9"}, {"size": "3"}, {"size": "32"}]}}}}}, {"name": "Variable_1", "op": "Const", "attr": {"value": {"tensor": {"dtype": "DT_FLOAT", "tensorShape": {"dim": [{"size": "32"}]}}}, "dtype": {"type": "DT_FLOAT"}}}, {"name": "Variable_3", "op": "Const", "attr": {"value": {"tensor": {"dtype": "DT_FLOAT", "tensorShape": {"dim": [{"size": "3"}, {"size": "3"}, {"size": "32"}, {"size": "64"}]}}}, "dtype": {"type": "DT_FLOAT"}}}, {"name": "Variable_4", "op": "Const", "attr": {"value": {"tensor": {"dtype": "DT_FLOAT", "tensorShape": {"dim": [{"size": "64"}]}}}, "dtype": {"type": "DT_FLOAT"}}}, {"name": "Variable_6", "op": "Const", "attr": {"value": {"tensor": {"dtype": "DT_FLOAT", "tensorShape": {"dim": [{"size": "3"}, {"size": "3"}, {"size": "64"}, {"size": "128"}]}}}, "dtype": {"type": "DT_FLOAT"}}}, {"name": "Variable_7", "op": "Const", "attr": {"value": {"tensor": {"dtype": "DT_FLOAT", "tensorShape": {"dim": [{"size": "128"}]}}}, "dtype": {"type": "DT_FLOAT"}}}, {"name": "Variable_9", "op": "Const", "attr": {"value": {"tensor": {"dtype": "DT_FLOAT", "tensorShape": {"dim": [{"size": "3"}, {"size": "3"}, {"size": "128"}, {"size": "128"}]}}}, "dtype": {"type": "DT_FLOAT"}}}, {"name": "Variable_10", "op": "Const", "attr": {"value": {"tensor": {"dtype": "DT_FLOAT", "tensorShape": {"dim": [{"size": "128"}]}}}, "dtype": {"type": "DT_FLOAT"}}}, {"name": "Variable_12", "op": "Const", "attr": {"value": {"tensor": {"dtype": "DT_FLOAT", "tensorShape": {"dim": [{"size": "3"}, {"size": "3"}, {"size": "128"}, {"size": "128"}]}}}, "dtype": {"type": "DT_FLOAT"}}}, {"name": "Variable_15", "op": "Const", "attr": {"value": {"tensor": {"dtype": "DT_FLOAT", "tensorShape": {"dim": [{"size": "3"}, {"size": "3"}, {"size": "128"}, {"size": "128"}]}}}, "dtype": {"type": "DT_FLOAT"}}}, {"name": "Variable_16", "op": "Const", "attr": {"value": {"tensor": {"dtype": "DT_FLOAT", "tensorShape": {"dim": [{"size": "128"}]}}}, "dtype": {"type": "DT_FLOAT"}}}, {"name": "Variable_18", "op": "Const", "attr": {"value": {"tensor": {"dtype": "DT_FLOAT", "tensorShape": {"dim": [{"size": "3"}, {"size": "3"}, {"size": "128"}, {"size": "128"}]}}}, "dtype": {"type": "DT_FLOAT"}}}, {"name": "Variable_21", "op": "Const", "attr": {"value": {"tensor": {"dtype": "DT_FLOAT", "tensorShape": {"dim": [{"size": "3"}, {"size": "3"}, {"size": "128"}, {"size": "128"}]}}}, "dtype": {"type": "DT_FLOAT"}}}, {"name": "Variable_22", "op": "Const", "attr": {"value": {"tensor": {"dtype": "DT_FLOAT", "tensorShape": {"dim": [{"size": "128"}]}}}, "dtype": {"type": "DT_FLOAT"}}}, {"name": "Variable_24", "op": "Const", "attr": {"value": {"tensor": {"dtype": "DT_FLOAT", "tensorShape": {"dim": [{"size": "3"}, {"size": "3"}, {"size": "128"}, {"size": "128"}]}}}, "dtype": {"type": "DT_FLOAT"}}}, {"name": "Variable_27", "op": "Const", "attr": {"value": {"tensor": {"dtype": "DT_FLOAT", "tensorShape": {"dim": [{"size": "3"}, {"size": "3"}, {"size": "128"}, {"size": "128"}]}}}, "dtype": {"type": "DT_FLOAT"}}}, {"name": "Variable_28", "op": "Const", "attr": {"value": {"tensor": {"dtype": "DT_FLOAT", "tensorShape": {"dim": [{"size": "128"}]}}}, "dtype": {"type": "DT_FLOAT"}}}, {"name": "Variable_30", "op": "Const", "attr": {"value": {"tensor": {"dtype": "DT_FLOAT", "tensorShape": {"dim": [{"size": "3"}, {"size": "3"}, {"size": "128"}, {"size": "128"}]}}}, "dtype": {"type": "DT_FLOAT"}}}, {"name": "Variable_33", "op": "Const", "attr": {"value": {"tensor": {"dtype": "DT_FLOAT", "tensorShape": {"dim": [{"size": "3"}, {"size": "3"}, {"size": "128"}, {"size": "128"}]}}}, "dtype": {"type": "DT_FLOAT"}}}, {"name": "Variable_34", "op": "Const", "attr": {"value": {"tensor": {"dtype": "DT_FLOAT", "tensorShape": {"dim": [{"size": "128"}]}}}, "dtype": {"type": "DT_FLOAT"}}}, {"name": "Variable_36", "op": "Const", "attr": {"value": {"tensor": {"dtype": "DT_FLOAT", "tensorShape": {"dim": [{"size": "3"}, {"size": "3"}, {"size": "128"}, {"size": "128"}]}}}, "dtype": {"type": "DT_FLOAT"}}}, {"name": "Variable_40", "op": "Const", "attr": {"dtype": {"type": "DT_FLOAT"}, "value": {"tensor": {"dtype": "DT_FLOAT", "tensorShape": {"dim": [{"size": "64"}]}}}}}, {"name": "Variable_43", "op": "Const", "attr": {"value": {"tensor": {"dtype": "DT_FLOAT", "tensorShape": {"dim": [{"size": "32"}]}}}, "dtype": {"type": "DT_FLOAT"}}}, {"name": "Variable_45", "op": "Const", "attr": {"value": {"tensor": {"dtype": "DT_FLOAT", "tensorShape": {"dim": [{"size": "9"}, {"size": "9"}, {"size": "32"}, {"size": "3"}]}}}, "dtype": {"type": "DT_FLOAT"}}}, {"name": "moments/mean/reduction_indices", "op": "Const", "attr": {"value": {"tensor": {"dtype": "DT_INT32", "tensorShape": {"dim": [{"size": "2"}]}}}, "dtype": {"type": "DT_INT32"}}}, {"name": "Variable_46", "op": "Const", "attr": {"value": {"tensor": {"dtype": "DT_FLOAT", "tensorShape": {"dim": [{"size": "3"}]}}}, "dtype": {"type": "DT_FLOAT"}}}, {"name": "mul_16/y", "op": "Const", "attr": {"value": {"tensor": {"dtype": "DT_FLOAT", "tensorShape": {}}}, "dtype": {"type": "DT_FLOAT"}}}, {"name": "add_37/y", "op": "Const", "attr": {"dtype": {"type": "DT_FLOAT"}, "value": {"tensor": {"dtype": "DT_FLOAT", "tensorShape": {}}}}}, {"name": "img", "op": "Placeholder", "attr": {"shape": {"shape": {"dim": [{"size": "256"}, {"size": "256"}, {"size": "3"}]}}, "dtype": {"type": "DT_FLOAT"}}}, {"name": "ExpandDims", "op": "ExpandDims", "input": ["img", "ExpandDims/dim"], "attr": {"T": {"type": "DT_FLOAT"}, "Tdim": {"type": "DT_INT32"}}}, {"name": "Conv2D", "op": "Conv2D", "input": ["ExpandDims", "Variable"], "attr": {"dilations": {"list": {"i": ["1", "1", "1", "1"]}}, "T": {"type": "DT_FLOAT"}, "data_format": {"s": "TkhXQw=="}, "strides": {"list": {"i": ["1", "1", "1", "1"]}}, "use_cudnn_on_gpu": {"b": true}, "padding": {"s": "U0FNRQ=="}}}, {"name": "moments/mean", "op": "Mean", "input": ["Conv2D", "moments/mean/reduction_indices"], "attr": {"keep_dims": {"b": true}, "Tidx": {"type": "DT_INT32"}, "T": {"type": "DT_FLOAT"}}}, {"name": "moments/SquaredDifference", "op": "SquaredDifference", "input": ["Conv2D", "moments/mean"], "attr": {"T": {"type": "DT_FLOAT"}}}, {"name": "sub", "op": "Sub", "input": ["Conv2D", "moments/mean"], "attr": {"T": {"type": "DT_FLOAT"}}}, {"name": "moments/variance", "op": "Mean", "input": ["moments/SquaredDifference", "moments/mean/reduction_indices"], "attr": {"keep_dims": {"b": true}, "Tidx": {"type": "DT_INT32"}, "T": {"type": "DT_FLOAT"}}}, {"name": "add", "op": "Add", "input": ["moments/variance", "add/y"], "attr": {"T": {"type": "DT_FLOAT"}}}, {"name": "pow", "op": "Rsqrt", "input": ["add"], "attr": {"T": {"type": "DT_FLOAT"}}}, {"name": "truediv", "op": "Mul", "input": ["Variable_2", "pow"], "attr": {"T": {"type": "DT_FLOAT"}, "_grappler:ArithmeticOptimizer:MinimizeBroadcasts": {"b": true}}}, {"name": "mul", "op": "Mul", "input": ["truediv", "sub"], "attr": {"_grappler:ArithmeticOptimizer:MinimizeBroadcasts": {"b": true}, "T": {"type": "DT_FLOAT"}}}, {"name": "add_1", "op": "Add", "input": ["mul", "Variable_1"], "attr": {"T": {"type": "DT_FLOAT"}}}, {"name": "Relu", "op": "Relu", "input": ["add_1"], "attr": {"T": {"type": "DT_FLOAT"}}}, {"name": "Conv2D_1", "op": "Conv2D", "input": ["Relu", "Variable_3"], "attr": {"dilations": {"list": {"i": ["1", "1", "1", "1"]}}, "T": {"type": "DT_FLOAT"}, "strides": {"list": {"i": ["1", "2", "2", "1"]}}, "data_format": {"s": "TkhXQw=="}, "use_cudnn_on_gpu": {"b": true}, "padding": {"s": "U0FNRQ=="}}}, {"name": "moments_1/mean", "op": "Mean", "input": ["Conv2D_1", "moments/mean/reduction_indices"], "attr": {"keep_dims": {"b": true}, "Tidx": {"type": "DT_INT32"}, "T": {"type": "DT_FLOAT"}}}, {"name": "moments_1/SquaredDifference", "op": "SquaredDifference", "input": ["Conv2D_1", "moments_1/mean"], "attr": {"T": {"type": "DT_FLOAT"}}}, {"name": "sub_1", "op": "Sub", "input": ["Conv2D_1", "moments_1/mean"], "attr": {"T": {"type": "DT_FLOAT"}}}, {"name": "moments_1/variance", "op": "Mean", "input": ["moments_1/SquaredDifference", "moments/mean/reduction_indices"], "attr": {"T": {"type": "DT_FLOAT"}, "keep_dims": {"b": true}, "Tidx": {"type": "DT_INT32"}}}, {"name": "add_2", "op": "Add", "input": ["moments_1/variance", "add/y"], "attr": {"T": {"type": "DT_FLOAT"}}}, {"name": "pow_1", "op": "Rsqrt", "input": ["add_2"], "attr": {"T": {"type": "DT_FLOAT"}}}, {"name": "truediv_1", "op": "Mul", "input": ["Variable_5", "pow_1"], "attr": {"_grappler:ArithmeticOptimizer:MinimizeBroadcasts": {"b": true}, "T": {"type": "DT_FLOAT"}}}, {"name": "mul_1", "op": "Mul", "input": ["truediv_1", "sub_1"], "attr": {"_grappler:ArithmeticOptimizer:MinimizeBroadcasts": {"b": true}, "T": {"type": "DT_FLOAT"}}}, {"name": "add_3", "op": "Add", "input": ["mul_1", "Variable_4"], "attr": {"T": {"type": "DT_FLOAT"}}}, {"name": "Relu_1", "op": "Relu", "input": ["add_3"], "attr": {"T": {"type": "DT_FLOAT"}}}, {"name": "Conv2D_2", "op": "Conv2D", "input": ["Relu_1", "Variable_6"], "attr": {"dilations": {"list": {"i": ["1", "1", "1", "1"]}}, "T": {"type": "DT_FLOAT"}, "data_format": {"s": "TkhXQw=="}, "strides": {"list": {"i": ["1", "2", "2", "1"]}}, "use_cudnn_on_gpu": {"b": true}, "padding": {"s": "U0FNRQ=="}}}, {"name": "moments_2/mean", "op": "Mean", "input": ["Conv2D_2", "moments/mean/reduction_indices"], "attr": {"T": {"type": "DT_FLOAT"}, "keep_dims": {"b": true}, "Tidx": {"type": "DT_INT32"}}}, {"name": "moments_2/SquaredDifference", "op": "SquaredDifference", "input": ["Conv2D_2", "moments_2/mean"], "attr": {"T": {"type": "DT_FLOAT"}}}, {"name": "sub_2", "op": "Sub", "input": ["Conv2D_2", "moments_2/mean"], "attr": {"T": {"type": "DT_FLOAT"}}}, {"name": "moments_2/variance", "op": "Mean", "input": ["moments_2/SquaredDifference", "moments/mean/reduction_indices"], "attr": {"T": {"type": "DT_FLOAT"}, "keep_dims": {"b": true}, "Tidx": {"type": "DT_INT32"}}}, {"name": "add_4", "op": "Add", "input": ["moments_2/variance", "add/y"], "attr": {"T": {"type": "DT_FLOAT"}}}, {"name": "pow_2", "op": "Rsqrt", "input": ["add_4"], "attr": {"T": {"type": "DT_FLOAT"}}}, {"name": "truediv_2", "op": "Mul", "input": ["Variable_8", "pow_2"], "attr": {"_grappler:ArithmeticOptimizer:MinimizeBroadcasts": {"b": true}, "T": {"type": "DT_FLOAT"}}}, {"name": "mul_2", "op": "Mul", "input": ["truediv_2", "sub_2"], "attr": {"T": {"type": "DT_FLOAT"}, "_grappler:ArithmeticOptimizer:MinimizeBroadcasts": {"b": true}}}, {"name": "add_5", "op": "Add", "input": ["mul_2", "Variable_7"], "attr": {"T": {"type": "DT_FLOAT"}}}, {"name": "Relu_2", "op": "Relu", "input": ["add_5"], "attr": {"T": {"type": "DT_FLOAT"}}}, {"name": "Conv2D_3", "op": "Conv2D", "input": ["Relu_2", "Variable_9"], "attr": {"T": {"type": "DT_FLOAT"}, "strides": {"list": {"i": ["1", "1", "1", "1"]}}, "data_format": {"s": "TkhXQw=="}, "use_cudnn_on_gpu": {"b": true}, "padding": {"s": "U0FNRQ=="}, "dilations": {"list": {"i": ["1", "1", "1", "1"]}}}}, {"name": "moments_3/mean", "op": "Mean", "input": ["Conv2D_3", "moments/mean/reduction_indices"], "attr": {"keep_dims": {"b": true}, "Tidx": {"type": "DT_INT32"}, "T": {"type": "DT_FLOAT"}}}, {"name": "moments_3/SquaredDifference", "op": "SquaredDifference", "input": ["Conv2D_3", "moments_3/mean"], "attr": {"T": {"type": "DT_FLOAT"}}}, {"name": "sub_3", "op": "Sub", "input": ["Conv2D_3", "moments_3/mean"], "attr": {"T": {"type": "DT_FLOAT"}}}, {"name": "moments_3/variance", "op": "Mean", "input": ["moments_3/SquaredDifference", "moments/mean/reduction_indices"], "attr": {"T": {"type": "DT_FLOAT"}, "keep_dims": {"b": true}, "Tidx": {"type": "DT_INT32"}}}, {"name": "add_6", "op": "Add", "input": ["moments_3/variance", "add/y"], "attr": {"T": {"type": "DT_FLOAT"}}}, {"name": "pow_3", "op": "Rsqrt", "input": ["add_6"], "attr": {"T": {"type": "DT_FLOAT"}}}, {"name": "truediv_3", "op": "Mul", "input": ["Variable_11", "pow_3"], "attr": {"_grappler:ArithmeticOptimizer:MinimizeBroadcasts": {"b": true}, "T": {"type": "DT_FLOAT"}}}, {"name": "mul_3", "op": "Mul", "input": ["truediv_3", "sub_3"], "attr": {"_grappler:ArithmeticOptimizer:MinimizeBroadcasts": {"b": true}, "T": {"type": "DT_FLOAT"}}}, {"name": "add_7", "op": "Add", "input": ["mul_3", "Variable_10"], "attr": {"T": {"type": "DT_FLOAT"}}}, {"name": "Relu_3", "op": "Relu", "input": ["add_7"], "attr": {"T": {"type": "DT_FLOAT"}}}, {"name": "Conv2D_4", "op": "Conv2D", "input": ["Relu_3", "Variable_12"], "attr": {"dilations": {"list": {"i": ["1", "1", "1", "1"]}}, "T": {"type": "DT_FLOAT"}, "data_format": {"s": "TkhXQw=="}, "strides": {"list": {"i": ["1", "1", "1", "1"]}}, "use_cudnn_on_gpu": {"b": true}, "padding": {"s": "U0FNRQ=="}}}, {"name": "moments_4/mean", "op": "Mean", "input": ["Conv2D_4", "moments/mean/reduction_indices"], "attr": {"T": {"type": "DT_FLOAT"}, "keep_dims": {"b": true}, "Tidx": {"type": "DT_INT32"}}}, {"name": "moments_4/SquaredDifference", "op": "SquaredDifference", "input": ["Conv2D_4", "moments_4/mean"], "attr": {"T": {"type": "DT_FLOAT"}}}, {"name": "sub_4", "op": "Sub", "input": ["Conv2D_4", "moments_4/mean"], "attr": {"T": {"type": "DT_FLOAT"}}}, {"name": "moments_4/variance", "op": "Mean", "input": ["moments_4/SquaredDifference", "moments/mean/reduction_indices"], "attr": {"keep_dims": {"b": true}, "Tidx": {"type": "DT_INT32"}, "T": {"type": "DT_FLOAT"}}}, {"name": "add_8", "op": "Add", "input": ["moments_4/variance", "add/y"], "attr": {"T": {"type": "DT_FLOAT"}}}, {"name": "pow_4", "op": "Rsqrt", "input": ["add_8"], "attr": {"T": {"type": "DT_FLOAT"}}}, {"name": "truediv_4", "op": "Mul", "input": ["Variable_14", "pow_4"], "attr": {"_grappler:ArithmeticOptimizer:MinimizeBroadcasts": {"b": true}, "T": {"type": "DT_FLOAT"}}}, {"name": "mul_4", "op": "Mul", "input": ["truediv_4", "sub_4"], "attr": {"T": {"type": "DT_FLOAT"}, "_grappler:ArithmeticOptimizer:MinimizeBroadcasts": {"b": true}}}, {"name": "ArithmeticOptimizer/AddOpsRewrite_Leaf_1_add_10", "op": "AddN", "input": ["Relu_2", "mul_4"], "attr": {"T": {"type": "DT_FLOAT"}, "N": {"i": "2"}, "_grappler:ArithmeticOptimizer:AddOpsRewriteStage": {"b": true}}}, {"name": "ArithmeticOptimizer/AddOpsRewrite_add_10", "op": "Add", "input": ["Variable_13", "ArithmeticOptimizer/AddOpsRewrite_Leaf_1_add_10"], "attr": {"T": {"type": "DT_FLOAT"}, "_grappler:ArithmeticOptimizer:AddOpsRewriteStage": {"b": true}}}, {"name": "Conv2D_5", "op": "Conv2D", "input": ["ArithmeticOptimizer/AddOpsRewrite_add_10", "Variable_15"], "attr": {"dilations": {"list": {"i": ["1", "1", "1", "1"]}}, "T": {"type": "DT_FLOAT"}, "strides": {"list": {"i": ["1", "1", "1", "1"]}}, "data_format": {"s": "TkhXQw=="}, "use_cudnn_on_gpu": {"b": true}, "padding": {"s": "U0FNRQ=="}}}, {"name": "moments_5/mean", "op": "Mean", "input": ["Conv2D_5", "moments/mean/reduction_indices"], "attr": {"keep_dims": {"b": true}, "Tidx": {"type": "DT_INT32"}, "T": {"type": "DT_FLOAT"}}}, {"name": "moments_5/SquaredDifference", "op": "SquaredDifference", "input": ["Conv2D_5", "moments_5/mean"], "attr": {"T": {"type": "DT_FLOAT"}}}, {"name": "sub_5", "op": "Sub", "input": ["Conv2D_5", "moments_5/mean"], "attr": {"T": {"type": "DT_FLOAT"}}}, {"name": "moments_5/variance", "op": "Mean", "input": ["moments_5/SquaredDifference", "moments/mean/reduction_indices"], "attr": {"keep_dims": {"b": true}, "Tidx": {"type": "DT_INT32"}, "T": {"type": "DT_FLOAT"}}}, {"name": "add_11", "op": "Add", "input": ["moments_5/variance", "add/y"], "attr": {"T": {"type": "DT_FLOAT"}}}, {"name": "pow_5", "op": "Rsqrt", "input": ["add_11"], "attr": {"T": {"type": "DT_FLOAT"}}}, {"name": "truediv_5", "op": "Mul", "input": ["Variable_17", "pow_5"], "attr": {"T": {"type": "DT_FLOAT"}, "_grappler:ArithmeticOptimizer:MinimizeBroadcasts": {"b": true}}}, {"name": "mul_5", "op": "Mul", "input": ["truediv_5", "sub_5"], "attr": {"_grappler:ArithmeticOptimizer:MinimizeBroadcasts": {"b": true}, "T": {"type": "DT_FLOAT"}}}, {"name": "add_12", "op": "Add", "input": ["mul_5", "Variable_16"], "attr": {"T": {"type": "DT_FLOAT"}}}, {"name": "Relu_4", "op": "Relu", "input": ["add_12"], "attr": {"T": {"type": "DT_FLOAT"}}}, {"name": "Conv2D_6", "op": "Conv2D", "input": ["Relu_4", "Variable_18"], "attr": {"use_cudnn_on_gpu": {"b": true}, "padding": {"s": "U0FNRQ=="}, "dilations": {"list": {"i": ["1", "1", "1", "1"]}}, "T": {"type": "DT_FLOAT"}, "strides": {"list": {"i": ["1", "1", "1", "1"]}}, "data_format": {"s": "TkhXQw=="}}}, {"name": "moments_6/mean", "op": "Mean", "input": ["Conv2D_6", "moments/mean/reduction_indices"], "attr": {"keep_dims": {"b": true}, "Tidx": {"type": "DT_INT32"}, "T": {"type": "DT_FLOAT"}}}, {"name": "moments_6/SquaredDifference", "op": "SquaredDifference", "input": ["Conv2D_6", "moments_6/mean"], "attr": {"T": {"type": "DT_FLOAT"}}}, {"name": "sub_6", "op": "Sub", "input": ["Conv2D_6", "moments_6/mean"], "attr": {"T": {"type": "DT_FLOAT"}}}, {"name": "moments_6/variance", "op": "Mean", "input": ["moments_6/SquaredDifference", "moments/mean/reduction_indices"], "attr": {"keep_dims": {"b": true}, "Tidx": {"type": "DT_INT32"}, "T": {"type": "DT_FLOAT"}}}, {"name": "add_13", "op": "Add", "input": ["moments_6/variance", "add/y"], "attr": {"T": {"type": "DT_FLOAT"}}}, {"name": "pow_6", "op": "Rsqrt", "input": ["add_13"], "attr": {"T": {"type": "DT_FLOAT"}}}, {"name": "truediv_6", "op": "Mul", "input": ["Variable_20", "pow_6"], "attr": {"T": {"type": "DT_FLOAT"}, "_grappler:ArithmeticOptimizer:MinimizeBroadcasts": {"b": true}}}, {"name": "mul_6", "op": "Mul", "input": ["truediv_6", "sub_6"], "attr": {"_grappler:ArithmeticOptimizer:MinimizeBroadcasts": {"b": true}, "T": {"type": "DT_FLOAT"}}}, {"name": "ArithmeticOptimizer/AddOpsRewrite_Leaf_1_add_15", "op": "AddN", "input": ["ArithmeticOptimizer/AddOpsRewrite_add_10", "mul_6"], "attr": {"T": {"type": "DT_FLOAT"}, "N": {"i": "2"}, "_grappler:ArithmeticOptimizer:AddOpsRewriteStage": {"b": true}}}, {"name": "ArithmeticOptimizer/AddOpsRewrite_add_15", "op": "Add", "input": ["Variable_19", "ArithmeticOptimizer/AddOpsRewrite_Leaf_1_add_15"], "attr": {"T": {"type": "DT_FLOAT"}, "_grappler:ArithmeticOptimizer:AddOpsRewriteStage": {"b": true}}}, {"name": "Conv2D_7", "op": "Conv2D", "input": ["ArithmeticOptimizer/AddOpsRewrite_add_15", "Variable_21"], "attr": {"dilations": {"list": {"i": ["1", "1", "1", "1"]}}, "T": {"type": "DT_FLOAT"}, "data_format": {"s": "TkhXQw=="}, "strides": {"list": {"i": ["1", "1", "1", "1"]}}, "use_cudnn_on_gpu": {"b": true}, "padding": {"s": "U0FNRQ=="}}}, {"name": "moments_7/mean", "op": "Mean", "input": ["Conv2D_7", "moments/mean/reduction_indices"], "attr": {"T": {"type": "DT_FLOAT"}, "keep_dims": {"b": true}, "Tidx": {"type": "DT_INT32"}}}, {"name": "moments_7/SquaredDifference", "op": "SquaredDifference", "input": ["Conv2D_7", "moments_7/mean"], "attr": {"T": {"type": "DT_FLOAT"}}}, {"name": "sub_7", "op": "Sub", "input": ["Conv2D_7", "moments_7/mean"], "attr": {"T": {"type": "DT_FLOAT"}}}, {"name": "moments_7/variance", "op": "Mean", "input": ["moments_7/SquaredDifference", "moments/mean/reduction_indices"], "attr": {"keep_dims": {"b": true}, "Tidx": {"type": "DT_INT32"}, "T": {"type": "DT_FLOAT"}}}, {"name": "add_16", "op": "Add", "input": ["moments_7/variance", "add/y"], "attr": {"T": {"type": "DT_FLOAT"}}}, {"name": "pow_7", "op": "Rsqrt", "input": ["add_16"], "attr": {"T": {"type": "DT_FLOAT"}}}, {"name": "truediv_7", "op": "Mul", "input": ["Variable_23", "pow_7"], "attr": {"_grappler:ArithmeticOptimizer:MinimizeBroadcasts": {"b": true}, "T": {"type": "DT_FLOAT"}}}, {"name": "mul_7", "op": "Mul", "input": ["truediv_7", "sub_7"], "attr": {"_grappler:ArithmeticOptimizer:MinimizeBroadcasts": {"b": true}, "T": {"type": "DT_FLOAT"}}}, {"name": "add_17", "op": "Add", "input": ["mul_7", "Variable_22"], "attr": {"T": {"type": "DT_FLOAT"}}}, {"name": "Relu_5", "op": "Relu", "input": ["add_17"], "attr": {"T": {"type": "DT_FLOAT"}}}, {"name": "Conv2D_8", "op": "Conv2D", "input": ["Relu_5", "Variable_24"], "attr": {"dilations": {"list": {"i": ["1", "1", "1", "1"]}}, "T": {"type": "DT_FLOAT"}, "data_format": {"s": "TkhXQw=="}, "strides": {"list": {"i": ["1", "1", "1", "1"]}}, "use_cudnn_on_gpu": {"b": true}, "padding": {"s": "U0FNRQ=="}}}, {"name": "moments_8/mean", "op": "Mean", "input": ["Conv2D_8", "moments/mean/reduction_indices"], "attr": {"keep_dims": {"b": true}, "Tidx": {"type": "DT_INT32"}, "T": {"type": "DT_FLOAT"}}}, {"name": "moments_8/SquaredDifference", "op": "SquaredDifference", "input": ["Conv2D_8", "moments_8/mean"], "attr": {"T": {"type": "DT_FLOAT"}}}, {"name": "sub_8", "op": "Sub", "input": ["Conv2D_8", "moments_8/mean"], "attr": {"T": {"type": "DT_FLOAT"}}}, {"name": "moments_8/variance", "op": "Mean", "input": ["moments_8/SquaredDifference", "moments/mean/reduction_indices"], "attr": {"keep_dims": {"b": true}, "Tidx": {"type": "DT_INT32"}, "T": {"type": "DT_FLOAT"}}}, {"name": "add_18", "op": "Add", "input": ["moments_8/variance", "add/y"], "attr": {"T": {"type": "DT_FLOAT"}}}, {"name": "pow_8", "op": "Rsqrt", "input": ["add_18"], "attr": {"T": {"type": "DT_FLOAT"}}}, {"name": "truediv_8", "op": "Mul", "input": ["Variable_26", "pow_8"], "attr": {"_grappler:ArithmeticOptimizer:MinimizeBroadcasts": {"b": true}, "T": {"type": "DT_FLOAT"}}}, {"name": "mul_8", "op": "Mul", "input": ["truediv_8", "sub_8"], "attr": {"_grappler:ArithmeticOptimizer:MinimizeBroadcasts": {"b": true}, "T": {"type": "DT_FLOAT"}}}, {"name": "ArithmeticOptimizer/AddOpsRewrite_Leaf_1_add_20", "op": "AddN", "input": ["ArithmeticOptimizer/AddOpsRewrite_add_15", "mul_8"], "attr": {"T": {"type": "DT_FLOAT"}, "N": {"i": "2"}, "_grappler:ArithmeticOptimizer:AddOpsRewriteStage": {"b": true}}}, {"name": "ArithmeticOptimizer/AddOpsRewrite_add_20", "op": "Add", "input": ["Variable_25", "ArithmeticOptimizer/AddOpsRewrite_Leaf_1_add_20"], "attr": {"T": {"type": "DT_FLOAT"}, "_grappler:ArithmeticOptimizer:AddOpsRewriteStage": {"b": true}}}, {"name": "Conv2D_9", "op": "Conv2D", "input": ["ArithmeticOptimizer/AddOpsRewrite_add_20", "Variable_27"], "attr": {"dilations": {"list": {"i": ["1", "1", "1", "1"]}}, "T": {"type": "DT_FLOAT"}, "strides": {"list": {"i": ["1", "1", "1", "1"]}}, "data_format": {"s": "TkhXQw=="}, "use_cudnn_on_gpu": {"b": true}, "padding": {"s": "U0FNRQ=="}}}, {"name": "moments_9/mean", "op": "Mean", "input": ["Conv2D_9", "moments/mean/reduction_indices"], "attr": {"keep_dims": {"b": true}, "Tidx": {"type": "DT_INT32"}, "T": {"type": "DT_FLOAT"}}}, {"name": "moments_9/SquaredDifference", "op": "SquaredDifference", "input": ["Conv2D_9", "moments_9/mean"], "attr": {"T": {"type": "DT_FLOAT"}}}, {"name": "sub_9", "op": "Sub", "input": ["Conv2D_9", "moments_9/mean"], "attr": {"T": {"type": "DT_FLOAT"}}}, {"name": "moments_9/variance", "op": "Mean", "input": ["moments_9/SquaredDifference", "moments/mean/reduction_indices"], "attr": {"keep_dims": {"b": true}, "Tidx": {"type": "DT_INT32"}, "T": {"type": "DT_FLOAT"}}}, {"name": "add_21", "op": "Add", "input": ["moments_9/variance", "add/y"], "attr": {"T": {"type": "DT_FLOAT"}}}, {"name": "pow_9", "op": "Rsqrt", "input": ["add_21"], "attr": {"T": {"type": "DT_FLOAT"}}}, {"name": "truediv_9", "op": "Mul", "input": ["Variable_29", "pow_9"], "attr": {"T": {"type": "DT_FLOAT"}, "_grappler:ArithmeticOptimizer:MinimizeBroadcasts": {"b": true}}}, {"name": "mul_9", "op": "Mul", "input": ["truediv_9", "sub_9"], "attr": {"T": {"type": "DT_FLOAT"}, "_grappler:ArithmeticOptimizer:MinimizeBroadcasts": {"b": true}}}, {"name": "add_22", "op": "Add", "input": ["mul_9", "Variable_28"], "attr": {"T": {"type": "DT_FLOAT"}}}, {"name": "Relu_6", "op": "Relu", "input": ["add_22"], "attr": {"T": {"type": "DT_FLOAT"}}}, {"name": "Conv2D_10", "op": "Conv2D", "input": ["Relu_6", "Variable_30"], "attr": {"dilations": {"list": {"i": ["1", "1", "1", "1"]}}, "T": {"type": "DT_FLOAT"}, "data_format": {"s": "TkhXQw=="}, "strides": {"list": {"i": ["1", "1", "1", "1"]}}, "use_cudnn_on_gpu": {"b": true}, "padding": {"s": "U0FNRQ=="}}}, {"name": "moments_10/mean", "op": "Mean", "input": ["Conv2D_10", "moments/mean/reduction_indices"], "attr": {"keep_dims": {"b": true}, "Tidx": {"type": "DT_INT32"}, "T": {"type": "DT_FLOAT"}}}, {"name": "moments_10/SquaredDifference", "op": "SquaredDifference", "input": ["Conv2D_10", "moments_10/mean"], "attr": {"T": {"type": "DT_FLOAT"}}}, {"name": "sub_10", "op": "Sub", "input": ["Conv2D_10", "moments_10/mean"], "attr": {"T": {"type": "DT_FLOAT"}}}, {"name": "moments_10/variance", "op": "Mean", "input": ["moments_10/SquaredDifference", "moments/mean/reduction_indices"], "attr": {"T": {"type": "DT_FLOAT"}, "keep_dims": {"b": true}, "Tidx": {"type": "DT_INT32"}}}, {"name": "add_23", "op": "Add", "input": ["moments_10/variance", "add/y"], "attr": {"T": {"type": "DT_FLOAT"}}}, {"name": "pow_10", "op": "Rsqrt", "input": ["add_23"], "attr": {"T": {"type": "DT_FLOAT"}}}, {"name": "truediv_10", "op": "Mul", "input": ["Variable_32", "pow_10"], "attr": {"_grappler:ArithmeticOptimizer:MinimizeBroadcasts": {"b": true}, "T": {"type": "DT_FLOAT"}}}, {"name": "mul_10", "op": "Mul", "input": ["truediv_10", "sub_10"], "attr": {"_grappler:ArithmeticOptimizer:MinimizeBroadcasts": {"b": true}, "T": {"type": "DT_FLOAT"}}}, {"name": "ArithmeticOptimizer/AddOpsRewrite_Leaf_1_add_25", "op": "AddN", "input": ["ArithmeticOptimizer/AddOpsRewrite_add_20", "mul_10"], "attr": {"T": {"type": "DT_FLOAT"}, "N": {"i": "2"}, "_grappler:ArithmeticOptimizer:AddOpsRewriteStage": {"b": true}}}, {"name": "ArithmeticOptimizer/AddOpsRewrite_add_25", "op": "Add", "input": ["Variable_31", "ArithmeticOptimizer/AddOpsRewrite_Leaf_1_add_25"], "attr": {"T": {"type": "DT_FLOAT"}, "_grappler:ArithmeticOptimizer:AddOpsRewriteStage": {"b": true}}}, {"name": "Conv2D_11", "op": "Conv2D", "input": ["ArithmeticOptimizer/AddOpsRewrite_add_25", "Variable_33"], "attr": {"dilations": {"list": {"i": ["1", "1", "1", "1"]}}, "T": {"type": "DT_FLOAT"}, "strides": {"list": {"i": ["1", "1", "1", "1"]}}, "data_format": {"s": "TkhXQw=="}, "use_cudnn_on_gpu": {"b": true}, "padding": {"s": "U0FNRQ=="}}}, {"name": "moments_11/mean", "op": "Mean", "input": ["Conv2D_11", "moments/mean/reduction_indices"], "attr": {"keep_dims": {"b": true}, "Tidx": {"type": "DT_INT32"}, "T": {"type": "DT_FLOAT"}}}, {"name": "moments_11/SquaredDifference", "op": "SquaredDifference", "input": ["Conv2D_11", "moments_11/mean"], "attr": {"T": {"type": "DT_FLOAT"}}}, {"name": "sub_11", "op": "Sub", "input": ["Conv2D_11", "moments_11/mean"], "attr": {"T": {"type": "DT_FLOAT"}}}, {"name": "moments_11/variance", "op": "Mean", "input": ["moments_11/SquaredDifference", "moments/mean/reduction_indices"], "attr": {"keep_dims": {"b": true}, "Tidx": {"type": "DT_INT32"}, "T": {"type": "DT_FLOAT"}}}, {"name": "add_26", "op": "Add", "input": ["moments_11/variance", "add/y"], "attr": {"T": {"type": "DT_FLOAT"}}}, {"name": "pow_11", "op": "Rsqrt", "input": ["add_26"], "attr": {"T": {"type": "DT_FLOAT"}}}, {"name": "truediv_11", "op": "Mul", "input": ["Variable_35", "pow_11"], "attr": {"_grappler:ArithmeticOptimizer:MinimizeBroadcasts": {"b": true}, "T": {"type": "DT_FLOAT"}}}, {"name": "mul_11", "op": "Mul", "input": ["truediv_11", "sub_11"], "attr": {"_grappler:ArithmeticOptimizer:MinimizeBroadcasts": {"b": true}, "T": {"type": "DT_FLOAT"}}}, {"name": "add_27", "op": "Add", "input": ["mul_11", "Variable_34"], "attr": {"T": {"type": "DT_FLOAT"}}}, {"name": "Relu_7", "op": "Relu", "input": ["add_27"], "attr": {"T": {"type": "DT_FLOAT"}}}, {"name": "Conv2D_12", "op": "Conv2D", "input": ["Relu_7", "Variable_36"], "attr": {"strides": {"list": {"i": ["1", "1", "1", "1"]}}, "data_format": {"s": "TkhXQw=="}, "use_cudnn_on_gpu": {"b": true}, "padding": {"s": "U0FNRQ=="}, "dilations": {"list": {"i": ["1", "1", "1", "1"]}}, "T": {"type": "DT_FLOAT"}}}, {"name": "moments_12/mean", "op": "Mean", "input": ["Conv2D_12", "moments/mean/reduction_indices"], "attr": {"keep_dims": {"b": true}, "Tidx": {"type": "DT_INT32"}, "T": {"type": "DT_FLOAT"}}}, {"name": "moments_12/SquaredDifference", "op": "SquaredDifference", "input": ["Conv2D_12", "moments_12/mean"], "attr": {"T": {"type": "DT_FLOAT"}}}, {"name": "sub_12", "op": "Sub", "input": ["Conv2D_12", "moments_12/mean"], "attr": {"T": {"type": "DT_FLOAT"}}}, {"name": "moments_12/variance", "op": "Mean", "input": ["moments_12/SquaredDifference", "moments/mean/reduction_indices"], "attr": {"keep_dims": {"b": true}, "Tidx": {"type": "DT_INT32"}, "T": {"type": "DT_FLOAT"}}}, {"name": "add_28", "op": "Add", "input": ["moments_12/variance", "add/y"], "attr": {"T": {"type": "DT_FLOAT"}}}, {"name": "pow_12", "op": "Rsqrt", "input": ["add_28"], "attr": {"T": {"type": "DT_FLOAT"}}}, {"name": "truediv_12", "op": "Mul", "input": ["Variable_38", "pow_12"], "attr": {"T": {"type": "DT_FLOAT"}, "_grappler:ArithmeticOptimizer:MinimizeBroadcasts": {"b": true}}}, {"name": "mul_12", "op": "Mul", "input": ["truediv_12", "sub_12"], "attr": {"_grappler:ArithmeticOptimizer:MinimizeBroadcasts": {"b": true}, "T": {"type": "DT_FLOAT"}}}, {"name": "ArithmeticOptimizer/AddOpsRewrite_Leaf_1_add_30", "op": "AddN", "input": ["ArithmeticOptimizer/AddOpsRewrite_add_25", "mul_12"], "attr": {"T": {"type": "DT_FLOAT"}, "N": {"i": "2"}, "_grappler:ArithmeticOptimizer:AddOpsRewriteStage": {"b": true}}}, {"name": "ArithmeticOptimizer/AddOpsRewrite_add_30", "op": "Add", "input": ["Variable_37", "ArithmeticOptimizer/AddOpsRewrite_Leaf_1_add_30"], "attr": {"T": {"type": "DT_FLOAT"}, "_grappler:ArithmeticOptimizer:AddOpsRewriteStage": {"b": true}}}, {"name": "conv2d_transpose", "op": "Conv2DBackpropInput", "input": ["stack", "Variable_39", "ArithmeticOptimizer/AddOpsRewrite_add_30"], "attr": {"data_format": {"s": "TkhXQw=="}, "strides": {"list": {"i": ["1", "2", "2", "1"]}}, "use_cudnn_on_gpu": {"b": true}, "padding": {"s": "U0FNRQ=="}, "dilations": {"list": {"i": ["1", "1", "1", "1"]}}, "T": {"type": "DT_FLOAT"}}}, {"name": "moments_13/mean", "op": "Mean", "input": ["conv2d_transpose", "moments/mean/reduction_indices"], "attr": {"keep_dims": {"b": true}, "Tidx": {"type": "DT_INT32"}, "T": {"type": "DT_FLOAT"}}}, {"name": "moments_13/SquaredDifference", "op": "SquaredDifference", "input": ["conv2d_transpose", "moments_13/mean"], "attr": {"T": {"type": "DT_FLOAT"}}}, {"name": "sub_13", "op": "Sub", "input": ["conv2d_transpose", "moments_13/mean"], "attr": {"T": {"type": "DT_FLOAT"}}}, {"name": "moments_13/variance", "op": "Mean", "input": ["moments_13/SquaredDifference", "moments/mean/reduction_indices"], "attr": {"keep_dims": {"b": true}, "Tidx": {"type": "DT_INT32"}, "T": {"type": "DT_FLOAT"}}}, {"name": "add_31", "op": "Add", "input": ["moments_13/variance", "add/y"], "attr": {"T": {"type": "DT_FLOAT"}}}, {"name": "pow_13", "op": "Rsqrt", "input": ["add_31"], "attr": {"T": {"type": "DT_FLOAT"}}}, {"name": "truediv_13", "op": "Mul", "input": ["Variable_41", "pow_13"], "attr": {"_grappler:ArithmeticOptimizer:MinimizeBroadcasts": {"b": true}, "T": {"type": "DT_FLOAT"}}}, {"name": "mul_13", "op": "Mul", "input": ["truediv_13", "sub_13"], "attr": {"T": {"type": "DT_FLOAT"}, "_grappler:ArithmeticOptimizer:MinimizeBroadcasts": {"b": true}}}, {"name": "add_32", "op": "Add", "input": ["mul_13", "Variable_40"], "attr": {"T": {"type": "DT_FLOAT"}}}, {"name": "Relu_8", "op": "Relu", "input": ["add_32"], "attr": {"T": {"type": "DT_FLOAT"}}}, {"name": "conv2d_transpose_1", "op": "Conv2DBackpropInput", "input": ["stack_1", "Variable_42", "Relu_8"], "attr": {"T": {"type": "DT_FLOAT"}, "data_format": {"s": "TkhXQw=="}, "strides": {"list": {"i": ["1", "2", "2", "1"]}}, "use_cudnn_on_gpu": {"b": true}, "padding": {"s": "U0FNRQ=="}, "dilations": {"list": {"i": ["1", "1", "1", "1"]}}}}, {"name": "moments_14/mean", "op": "Mean", "input": ["conv2d_transpose_1", "moments/mean/reduction_indices"], "attr": {"keep_dims": {"b": true}, "Tidx": {"type": "DT_INT32"}, "T": {"type": "DT_FLOAT"}}}, {"name": "moments_14/SquaredDifference", "op": "SquaredDifference", "input": ["conv2d_transpose_1", "moments_14/mean"], "attr": {"T": {"type": "DT_FLOAT"}}}, {"name": "sub_14", "op": "Sub", "input": ["conv2d_transpose_1", "moments_14/mean"], "attr": {"T": {"type": "DT_FLOAT"}}}, {"name": "moments_14/variance", "op": "Mean", "input": ["moments_14/SquaredDifference", "moments/mean/reduction_indices"], "attr": {"keep_dims": {"b": true}, "Tidx": {"type": "DT_INT32"}, "T": {"type": "DT_FLOAT"}}}, {"name": "add_33", "op": "Add", "input": ["moments_14/variance", "add/y"], "attr": {"T": {"type": "DT_FLOAT"}}}, {"name": "pow_14", "op": "Rsqrt", "input": ["add_33"], "attr": {"T": {"type": "DT_FLOAT"}}}, {"name": "truediv_14", "op": "Mul", "input": ["Variable_44", "pow_14"], "attr": {"_grappler:ArithmeticOptimizer:MinimizeBroadcasts": {"b": true}, "T": {"type": "DT_FLOAT"}}}, {"name": "mul_14", "op": "Mul", "input": ["truediv_14", "sub_14"], "attr": {"_grappler:ArithmeticOptimizer:MinimizeBroadcasts": {"b": true}, "T": {"type": "DT_FLOAT"}}}, {"name": "add_34", "op": "Add", "input": ["mul_14", "Variable_43"], "attr": {"T": {"type": "DT_FLOAT"}}}, {"name": "Relu_9", "op": "Relu", "input": ["add_34"], "attr": {"T": {"type": "DT_FLOAT"}}}, {"name": "Conv2D_13", "op": "Conv2D", "input": ["Relu_9", "Variable_45"], "attr": {"dilations": {"list": {"i": ["1", "1", "1", "1"]}}, "T": {"type": "DT_FLOAT"}, "data_format": {"s": "TkhXQw=="}, "strides": {"list": {"i": ["1", "1", "1", "1"]}}, "use_cudnn_on_gpu": {"b": true}, "padding": {"s": "U0FNRQ=="}}}, {"name": "moments_15/mean", "op": "Mean", "input": ["Conv2D_13", "moments/mean/reduction_indices"], "attr": {"T": {"type": "DT_FLOAT"}, "keep_dims": {"b": true}, "Tidx": {"type": "DT_INT32"}}}, {"name": "moments_15/SquaredDifference", "op": "SquaredDifference", "input": ["Conv2D_13", "moments_15/mean"], "attr": {"T": {"type": "DT_FLOAT"}}}, {"name": "sub_15", "op": "Sub", "input": ["Conv2D_13", "moments_15/mean"], "attr": {"T": {"type": "DT_FLOAT"}}}, {"name": "moments_15/variance", "op": "Mean", "input": ["moments_15/SquaredDifference", "moments/mean/reduction_indices"], "attr": {"keep_dims": {"b": true}, "Tidx": {"type": "DT_INT32"}, "T": {"type": "DT_FLOAT"}}}, {"name": "add_35", "op": "Add", "input": ["moments_15/variance", "add/y"], "attr": {"T": {"type": "DT_FLOAT"}}}, {"name": "pow_15", "op": "Rsqrt", "input": ["add_35"], "attr": {"T": {"type": "DT_FLOAT"}}}, {"name": "truediv_15", "op": "Mul", "input": ["Variable_47", "pow_15"], "attr": {"_grappler:ArithmeticOptimizer:MinimizeBroadcasts": {"b": true}, "T": {"type": "DT_FLOAT"}}}, {"name": "mul_15", "op": "Mul", "input": ["truediv_15", "sub_15"], "attr": {"_grappler:ArithmeticOptimizer:MinimizeBroadcasts": {"b": true}, "T": {"type": "DT_FLOAT"}}}, {"name": "add_36", "op": "Add", "input": ["mul_15", "Variable_46"], "attr": {"T": {"type": "DT_FLOAT"}}}, {"name": "Tanh", "op": "Tanh", "input": ["add_36"], "attr": {"T": {"type": "DT_FLOAT"}}}, {"name": "mul_16", "op": "Mul", "input": ["Tanh", "mul_16/y"], "attr": {"T": {"type": "DT_FLOAT"}}}, {"name": "add_37", "op": "Add", "input": ["mul_16", "add_37/y"], "attr": {"T": {"type": "DT_FLOAT"}}}], "library": {}, "versions": {}}, "weightsManifest": [{"paths": ["group1-shard1of1"], "weights": [{"name": "Variable_47", "shape": [3], "dtype": "float32", "quantization": {"min": 0.6885632276535034, "scale": 0.0006014646268358417, "dtype": "uint8"}}, {"name": "Variable_44", "shape": [32], "dtype": "float32", "quantization": {"min": 0.7236828804016113, "scale": 0.0036249137392231063, "dtype": "uint8"}}, {"name": "stack_1", "shape": [4], "dtype": "int32", "quantization": {"min": 1.0, "scale": 1.0, "dtype": "uint8"}}, {"name": "Variable_42", "shape": [3, 3, 32, 64], "dtype": "float32", "quantization": {"min": -0.9130284458983178, "scale": 0.00616911112093458, "dtype": "uint8"}}, {"name": "Variable_41", "shape": [64], "dtype": "float32", "quantization": {"min": 0.8327017426490784, "scale": 0.0012170181554906508, "dtype": "uint8"}}, {"name": "stack", "shape": [4], "dtype": "int32", "quantization": {"min": 1.0, "scale": 0.4980392156862745, "dtype": "uint8"}}, {"name": "Variable_39", "shape": [3, 3, 64, 128], "dtype": "float32", "quantization": {"min": -0.88167518751294, "scale": 0.006942324311125512, "dtype": "uint8"}}, {"name": "Variable_37", "shape": [128], "dtype": "float32", "quantization": {"min": -0.1942249055586609, "scale": 0.0017188044739704506, "dtype": "uint8"}}, {"name": "Variable_38", "shape": [128], "dtype": "float32", "quantization": {"min": 1.1893316507339478, "scale": 0.00480950065687591, "dtype": "uint8"}}, {"name": "Variable_35", "shape": [128], "dtype": "float32", "quantization": {"min": 0.8013315200805664, "scale": 0.0014957231633803425, "dtype": "uint8"}}, {"name": "Variable_31", "shape": [128], "dtype": "float32", "quantization": {"min": -0.18551622278550092, "scale": 0.0015721713795381433, "dtype": "uint8"}}, {"name": "Variable_32", "shape": [128], "dtype": "float32", "quantization": {"min": 0.8342373371124268, "scale": 0.004548792745552811, "dtype": "uint8"}}, {"name": "Variable_29", "shape": [128], "dtype": "float32", "quantization": {"min": 0.6286901235580444, "scale": 0.0032093431435379328, "dtype": "uint8"}}, {"name": "Variable_25", "shape": [128], "dtype": "float32", "quantization": {"min": -0.2610369637316349, "scale": 0.001800254922287137, "dtype": "uint8"}}, {"name": "Variable_26", "shape": [128], "dtype": "float32", "quantization": {"min": 0.48559606075286865, "scale": 0.005724711044161927, "dtype": "uint8"}}, {"name": "Variable_23", "shape": [128], "dtype": "float32", "quantization": {"min": 0.5233907699584961, "scale": 0.004048370847515031, "dtype": "uint8"}}, {"name": "Variable_19", "shape": [128], "dtype": "float32", "quantization": {"min": -0.1643668300965253, "scale": 0.0015804502893896665, "dtype": "uint8"}}, {"name": "Variable_20", "shape": [128], "dtype": "float32", "quantization": {"min": 0.1477641761302948, "scale": 0.006201882105247647, "dtype": "uint8"}}, {"name": "Variable_17", "shape": [128], "dtype": "float32", "quantization": {"min": 0.43853291869163513, "scale": 0.004343180679807476, "dtype": "uint8"}}, {"name": "Variable_13", "shape": [128], "dtype": "float32", "quantization": {"min": -0.28242333543066883, "scale": 0.0029115807776357613, "dtype": "uint8"}}, {"name": "Variable_14", "shape": [128], "dtype": "float32", "quantization": {"min": 0.09836901724338531, "scale": 0.004424672442324021, "dtype": "uint8"}}, {"name": "Variable_11", "shape": [128], "dtype": "float32", "quantization": {"min": 0.5048741102218628, "scale": 0.005704000416923972, "dtype": "uint8"}}, {"name": "Variable_8", "shape": [128], "dtype": "float32", "quantization": {"min": 0.18678094446659088, "scale": 0.0029566848394917506, "dtype": "uint8"}}, {"name": "Variable_5", "shape": [64], "dtype": "float32", "quantization": {"min": 0.5236033201217651, "scale": 0.003944290385526769, "dtype": "uint8"}}, {"name": "Variable_2", "shape": [32], "dtype": "float32", "quantization": {"min": 0.5479157567024231, "scale": 0.0028760416834962134, "dtype": "uint8"}}, {"name": "add/y", "shape": [], "dtype": "float32", "quantization": {"min": 0.0010000000474974513, "scale": 1.0, "dtype": "uint8"}}, {"name": "ExpandDims/dim", "shape": [], "dtype": "int32", "quantization": {"min": 0.0, "scale": 1.0, "dtype": "uint8"}}, {"name": "Variable", "shape": [9, 9, 3, 32], "dtype": "float32", "quantization": {"min": -1.3366626117743698, "scale": 0.008200384121315152, "dtype": "uint8"}}, {"name": "Variable_1", "shape": [32], "dtype": "float32", "quantization": {"min": -0.5967865193591398, "scale": 0.00537645512936162, "dtype": "uint8"}}, {"name": "Variable_3", "shape": [3, 3, 32, 64], "dtype": "float32", "quantization": {"min": -0.863461648716646, "scale": 0.009924846536972943, "dtype": "uint8"}}, {"name": "Variable_4", "shape": [64], "dtype": "float32", "quantization": {"min": -0.7797116307651295, "scale": 0.005340490621678969, "dtype": "uint8"}}, {"name": "Variable_6", "shape": [3, 3, 64, 128], "dtype": "float32", "quantization": {"min": -1.1880572996887506, "scale": 0.009818655369328518, "dtype": "uint8"}}, {"name": "Variable_7", "shape": [128], "dtype": "float32", "quantization": {"min": -0.7007540098592346, "scale": 0.004146473431119731, "dtype": "uint8"}}, {"name": "Variable_9", "shape": [3, 3, 128, 128], "dtype": "float32", "quantization": {"min": -1.3714496201159907, "scale": 0.00979606871511422, "dtype": "uint8"}}, {"name": "Variable_10", "shape": [128], "dtype": "float32", "quantization": {"min": -1.3298736207625446, "scale": 0.006424510245229683, "dtype": "uint8"}}, {"name": "Variable_12", "shape": [3, 3, 128, 128], "dtype": "float32", "quantization": {"min": -1.3339700067744535, "scale": 0.010671760054195628, "dtype": "uint8"}}, {"name": "Variable_15", "shape": [3, 3, 128, 128], "dtype": "float32", "quantization": {"min": -1.3658245044596056, "scale": 0.010269357176388012, "dtype": "uint8"}}, {"name": "Variable_16", "shape": [128], "dtype": "float32", "quantization": {"min": -1.0212334932065479, "scale": 0.006718641402674657, "dtype": "uint8"}}, {"name": "Variable_18", "shape": [3, 3, 128, 128], "dtype": "float32", "quantization": {"min": -1.1182567414115456, "scale": 0.00866865691016702, "dtype": "uint8"}}, {"name": "Variable_21", "shape": [3, 3, 128, 128], "dtype": "float32", "quantization": {"min": -1.4009819030761719, "scale": 0.011674849192301433, "dtype": "uint8"}}, {"name": "Variable_22", "shape": [128], "dtype": "float32", "quantization": {"min": -1.6825270512524773, "scale": 0.007647850232965806, "dtype": "uint8"}}, {"name": "Variable_24", "shape": [3, 3, 128, 128], "dtype": "float32", "quantization": {"min": -1.2102041244506836, "scale": 0.009839057922363281, "dtype": "uint8"}}, {"name": "Variable_27", "shape": [3, 3, 128, 128], "dtype": "float32", "quantization": {"min": -1.0969891136767818, "scale": 0.008846686400619207, "dtype": "uint8"}}, {"name": "Variable_28", "shape": [128], "dtype": "float32", "quantization": {"min": -1.5062263248597876, "scale": 0.006877745775615468, "dtype": "uint8"}}, {"name": "Variable_30", "shape": [3, 3, 128, 128], "dtype": "float32", "quantization": {"min": -1.29486569703794, "scale": 0.010195792890062519, "dtype": "uint8"}}, {"name": "Variable_33", "shape": [3, 3, 128, 128], "dtype": "float32", "quantization": {"min": -0.8506161205908832, "scale": 0.007270223252913531, "dtype": "uint8"}}, {"name": "Variable_34", "shape": [128], "dtype": "float32", "quantization": {"min": -0.9844595654338014, "scale": 0.004171438836583904, "dtype": "uint8"}}, {"name": "Variable_36", "shape": [3, 3, 128, 128], "dtype": "float32", "quantization": {"min": -1.0185541370335747, "scale": 0.007544845459507961, "dtype": "uint8"}}, {"name": "Variable_40", "shape": [64], "dtype": "float32", "quantization": {"min": -0.5921307802200317, "scale": 0.0021596021950244905, "dtype": "uint8"}}, {"name": "Variable_43", "shape": [32], "dtype": "float32", "quantization": {"min": -0.6297533028850368, "scale": 0.0029427724433880227, "dtype": "uint8"}}, {"name": "Variable_45", "shape": [9, 9, 32, 3], "dtype": "float32", "quantization": {"min": -0.6746751841376809, "scale": 0.005866740731632008, "dtype": "uint8"}}, {"name": "moments/mean/reduction_indices", "shape": [2], "dtype": "int32", "quantization": {"min": 1.0, "scale": 0.00392156862745098, "dtype": "uint8"}}, {"name": "Variable_46", "shape": [3], "dtype": "float32", "quantization": {"min": -0.3622769047232235, "scale": 0.0030189742060268625, "dtype": "uint8"}}, {"name": "mul_16/y", "shape": [], "dtype": "float32", "quantization": {"min": 150.0, "scale": 1.0, "dtype": "uint8"}}, {"name": "add_37/y", "shape": [], "dtype": "float32", "quantization": {"min": 127.5, "scale": 1.0, "dtype": "uint8"}}]}]}